training_data.pth (torch, 9295 bytes, 10 tensors)

layer1.weight f4 [8, 93]
-1.0662556 0.6669492 0.3174276 -0.31068677 1.5203269 -0.1412034 2.6739287 -0.075599946
1.42346 0.15001303 -0.5529958 3.4475865 -0.30021924 -0.119023405 -0.02095857 0.028407894
-0.6543055 4.3655796 1.4457973 -0.16362219 -0.11528621 3.9840014 -0.116743006 -0.12842491
0.086871974 -0.09669996 -0.7431784 2.1674392 -0.02082961 0.23306271 0.26566812 -0.01765044
0.16336584 0.19235304 0.05183618 -1.0205871 -0.2418183 0.26901144 -0.2548291 1.787659
-0.90440303 -0.18927519 0.63671523 -0.18881215 -0.60806173 -0.24422568 0.15454789 1.1039615
-1.399516 -0.5655316 0.48882037 0.07638501 -1.1853706 0.19835225 -1.1675199 -1.0324304
3.6363177 -0.19439068 1.3363588 1.5770453 6.6916866 0.19484514 -0.18813254 -0.041952826
-0.67578644 -0.24500668 -0.29071715 -0.33034012 -0.51133823 -0.9653195 -1.2205173 -0.847007
0.4834274 -0.088882945 -0.29904494 -0.29131985 0.9202527 0.921782 -0.81861866 -0.49399433
0.37897792 0.17788698 -0.2189246 0.83221495 -1.4648842 1.6515502 -0.25957084 -1.2049148
0.97479844 0.6929025 1.0031242 0.98210216 0.5809105 0.5039212 -0.53337955 0.42792386
-0.18370868 -0.15294306 -0.55334413 -0.440531 -0.051870063 -0.47295657 1.527464 0.6711434
-0.49059963 -0.8989097 -1.02041 -0.69656616 -0.8184125 -0.30620718 -0.5721771 -1.1065884
-0.14014062 -0.8061052 -0.6205232 1.9179965 -0.43977827 1.451692 -0.2626634 -0.24272886
-1.0066061 -0.07253637 1.0663666 1.0087903 0.7918742 0.7558078 0.76082474 -0.49358693
1.3244557 2.7268615 0.6490373 -0.3219505 -0.6777706 0.32893348 -0.76425946 -0.50603426
-0.41047138 0.895959 -1.8491436 0.6205822 1.2466679 -0.8825199 1.0061852 0.92919254
0.492154 0.0011409636 0.97755456 1.2472008 1.3171737 -0.62795615 -0.0052455543 -0.48613033
-0.5686484 -1.0310771 0.56928647 -0.08308376 -0.79689556 0.6301493 -0.5566951 2.6530929
-0.33994603 -0.032729186 1.0404478 2.536634 1.5289186 0.46393362 -0.59620327 -0.2313712
-0.42792675 -0.9345223 -0.35112035 0.44201016 -0.032615818 0.43675533 0.20902133 2.94231
-0.21152811 -1.1981761 -0.8195 -0.21707226 1.8352966 0.26562068 0.29447243 0.33738673
0.30431607 0.9583223 -0.0797568 -0.0031999915 -0.061729994 0.02426187 -0.03703872 0.008532966
-0.010603473 0.008948214 -0.047042575 -0.08112455 0.05891992 -0.032725126 -0.0074201226 -0.014116578
0.02069515 -0.051334128 -0.04433044 -0.04330589 -0.013509435 0.024498597 -0.07432207 0.03692797
-0.09826001 0.043565795 -0.081155345 0.0043693334 -0.023648575 -0.056132365 -0.059179556 0.06061372
-0.09320242 -0.05839269 -0.018845737 0.08614554 -0.038817275 0.023394823 -0.057256054 0.051723525
0.04079017 0.028850213 0.10139099 0.03995311 0.026472012 0.0074139764 0.030583361 -0.083124705
-0.026655205 -0.094736665 -0.05274746 0.0499886 -0.010898069 0.0421948 -0.01916466 0.017796874
-0.01921837 -0.0073417574 0.043353677 0.06379682 -0.07220927 -0.046318516 0.0004618466 -0.0626899
-0.012482628 -0.013082405 -0.016778499 0.027294878 -0.017708756 -0.06676785 0.015991233 -0.03931296
00000000: 107b 88bf 2fbd 2a3f df85 a23e 5612 9fbe
00000010: 129a c23f a097 10be a621 2b40 25d4 9abd
00000020: f033 b63f 049d 193e 2291 0dbf 42a5 5c40
00000030: 56b6 99be 8bc2 f3bd 4fb1 abbc acb7 e83c
00000040: 9180 27bf d4b2 8b40 e30f b93f 938c 27be
00000050: 2d1b ecbd e1f9 7e40 f516 efbd d281 03be
00000060: efe9 b13d a10a c6bd f140 3ebf 53b7 0a40
00000070: dca2 aabc fea7 6e3e a705 883e a897 90bc
00000080: 6049 273e 32f8 443e 2d52 543d 99a2 82bf
00000090: 379f 77be debb 893e f678 82be 03d2 e43f
000000a0: f586 67bf 5bd1 41be c5ff 223f f957 41be
000000b0: efa9 1bbf 4c16 7abe cd41 1e3e 9c4e 8d3f
000000c0: 5723 b3bf aec6 10bf aa46 fa3e be6f 9c3d
000000d0: 39ba 97bf da1c 4b3e 4b71 95bf ae26 84bf
000000e0: 6eb9 6840 5a0e 47be ce0d ab3f 9fdc c93f
000000f0: 4c22 d640 7c85 473e d1a5 40be bad6 2bbd
00000100: 5700 2dbf 08e3 7abe e1d8 94be 5722 a9be
00000110: 10e7 02bf 2e1f 77bf e939 9cbf 73d5 58bf
00000120: cc83 f73e 4308 b6bd 6b1c 99be e027 95be
00000130: ae95 6b3f e8f9 6b3f fe90 51bf d3ec fcbe
00000140: 6509 c23e 0128 363e c52d 60be 0a0c 553f
00000150: 5381 bbbf ff65 d33f 78e6 84be a63a 9abf
00000160: 648c 793f 0f62 313f 6066 803f 0c6b 7b3f
00000170: 8db6 143f fb00 013f 908b 08bf d618 db3e
00000180: 211e 3cbe 1b9d 1cbe f6a7 0dbf 478d e1be
00000190: b475 54bd 5d27 f2be f183 c33f 0ed0 2b3f
000001a0: e02f fbbe f21e 66bf cb9c 82bf 2952 32bf
000001b0: 7b83 51bf 30c7 9cbe 337a 12bf b0a4 8dbf
000001c0: 0681 0fbe e95c 4ebf 9cda 1ebf e980 f53f
000001d0: 9e2a e1be 0bd1 b93f d17b 86be ea8d 78be
000001e0: 78d8 80bf f38d 94bd b37e 883f 0a20 813f
000001f0: 44b8 4a3f 9f7c 413f 69c5 423f 6db7 fcbe
00000200: c487 a93f e684 2e40 4f27 263f b2d6 a4be
00000210: 6082 2dbf f869 a83e 82a6 43bf 768b 01bf
00000220: 4e29 d2be 925d 653f bdb0 ecbf 7ade 1e3f
00000230: d092 9f3f d3ec 61bf adca 803f 90df 6d3f
00000240: 9cfb fb3e 638c 953a 0441 7a3f 47a4 9f3f
00000250: 2699 a83f bcc1 20bf e6e2 abbb 13e6 f8be
00000260: f192 11bf 56fa 83bf c2bc 113f d227 aabd
00000270: 5901 4cbf 7751 213f 9283 0ebf 46cc 2940
00000280: 680d aebe 0a0f 06bd 652d 853f 3658 2240
00000290: 9bb3 c33f b588 ed3e c7a0 18bf 92ec 6cbe
000002a0: 3719 dbbe da3c 6fbf 0cc6 b3be 284f e23e
000002b0: 2a98 05bd 659e df3e b009 563e cf4e 3c40
000002c0: d39a 58be d65d 99bf c1ca 51bf 3148 5ebe
000002d0: 00eb ea3f 6fff 873e 17c5 963e f4bd ac3e
000002e0: 51cf 9b3e 9c54 753f 8857 a3bd f3b6 51bb
000002f0: 97d8 7cbd d4c0 c63c eab5 17bd dacd 0b3c
00000300: 30ba 2dbc 889b 123c b7af 40bd a124 a6bd
00000310: 0456 713d c80a 06bd 8024 f3bb 3849 67bc
00000320: e088 a93c bc43 52bd d693 35bd 8461 31bd
00000330: ad56 5dbc 48b1 c83c 2b36 98bd c841 173d
00000340: 8b3c c9bd 0c72 323d c634 a6bd a02c 8f3b
00000350: a8ba c1bc 0deb 65bd 4366 72bd 1846 783d
00000360: e9e0 bebd 2c2d 6fbd 6062 9abc 136d b03d
00000370: ddfe 1ebd 80a6 bf3c 5385 6abd 0cdc 533d
00000380: 9813 273d 4857 ec3c 14a6 cf3d dfa5 233d
00000390: d5db d83c f1f0 f23b f589 fa3c 493d aabd
000003a0: 045c dabc 4c05 c2bd b80d 58bd d9c0 4c3d
000003b0: d08d 32bc 74d4 2c3d 34ff 9cbc c0ca 913c
000003c0: d86f 9dbc 2093 f0bb a093 313d e8a7 823d
000003d0: 74e2 93bd 7cb8 3dbd 0024 f239 9063 80bd
000003e0: f083 4cbc 9557 56bc 1073 89bc 8299 df3c
000003f0: f411 91bc 95bd 88bd 0c00 833c a006 21bd

layer1.bias f4 [8]
1.1355262 0.8802782 -0.3037022 0.6993905 0.25851125 0.33887374 0.2727642 -0.31533706
00000000: ec58 913f ea59 613f db7e 9bbe 410b 333f
00000010: 965b 843e dc80 ad3e c0a7 8b3e dc73 a1be

layer2.weight f4 [8, 8]
1.0929254 -0.123083726 -0.14781071 -0.34630334 -0.67468053 0.4078806 -1.810639 -0.23874211
-0.16653454 0.09390708 0.0016002357 -0.57285374 -0.33435035 -0.32918206 -0.22767112 0.10577956
1.146796 -0.45791808 -0.20381205 0.7450897 0.2711721 -0.14324673 0.87085134 -0.02433319
1.5164725 0.14797494 -0.28711239 0.32440594 -0.18028305 0.39429268 1.9713712 -0.12417351
-0.30255365 -0.1579921 0.15479288 -0.028908264 0.01098907 -0.3343132 -0.32202485 0.13983434
-0.7351761 -0.5188083 -0.20676742 -0.012585721 -0.28460062 -0.284401 -0.6868814 -0.251264
-0.019572709 2.2441227 -0.1730161 1.2814431 1.2477658 -0.33117503 1.1350589 -0.2045438
-0.60680944 0.5620571 -0.34847632 1.0597981 2.529393 0.18162994 0.5653946 0.026349058
00000000: fbe4 8b3f 5213 fcbd b15b 17be ac4e b1be
00000010: ddb7 2cbf bad5 d03e 05c3 e7bf d078 74be
00000020: 0888 2abe 5b52 c03d 00bf d13a 8ba6 12bf
00000030: f82f abbe 8d8a a8be 9e22 69be f4a2 d83d
00000040: 36ca 923f 3d74 eabe 1bb4 50be 33be 3e3f
00000050: 12d7 8a3e 45af 12be 1df0 5e3f 6656 c7bc
00000060: c51b c23f be86 173e 6500 93be 8918 a63e
00000070: 1f9c 38be bbe0 c93e e455 fc3f ae4e febd
00000080: 50e8 9abe aec8 21be 0682 1e3e 06d1 ecbc
00000090: 800b 343c 1a2b abbe 71e0 a4be bc30 0f3e
000000a0: 8034 3cbf 9fd0 04bf d7ba 53be 5734 4ebc
000000b0: 2cb7 91be 029d 91be 76d7 2fbf ada5 80be
000000c0: f256 a0bc b59f 0f40 222b 31be 5406 a43f
000000d0: cab6 9f3f c68f a9be 9c49 913f ee73 51be
000000e0: dd57 1bbf f9e2 0f3f 7d6b b2be 77a7 873f
000000f0: 93e1 2140 33fd 393e b3bd 103f fbd9 d73c

layer2.bias f4 [8]
0.83777034 -0.5302172 0.20634343 -0.29332894 -0.33759794 -0.35600173 -0.18969977 -1.5302415
00000000: 1e78 563f 50bc 07bf b14b 533e 362f 96be
00000010: a3d9 acbe dc45 b6be a840 42be f4de c3bf

layer3.weight f4 [8, 8]
-0.7273303 0.39686704 -0.20543407 0.22192946 -0.01921856 0.559541 1.6856096 -0.52109987
-2.5352337 -0.058291283 -0.071225114 -0.07214378 -0.62452424 -0.4993395 0.48146158 2.5340214
-0.30367947 0.12877941 -0.04462853 -0.20823374 -0.04671502 0.21564779 -0.00046476722 -0.045152962
-0.20186637 0.292452 0.30439982 -0.22736357 -0.09079388 0.30939814 -0.31918898 0.12540138
-0.59356004 -0.25903922 0.17005585 -0.23159449 0.009548992 -0.1793168 -0.18212505 -0.26652774
-0.23145747 -0.32015002 -0.10763842 -0.25504643 0.06811154 -0.34369552 -0.12926555 0.06233663
-0.33236754 0.10765526 1.1368324 1.9584233 0.051160317 0.0737991 -0.1049743 -0.0003268695
0.09883562 0.03394878 -0.26846287 -9.006262e-05 -0.059227705 -0.03343737 -0.15938905 0.12004033
00000000: 5232 3abf 2832 cb3e 4f5d 52be 7a41 633e
00000010: 3e70 9dbc 143e 0f3f 0ec2 d73f cd66 05bf
00000020: 4541 22c0 d7c2 6ebd 79de 91bd 1ec0 93bd
00000030: d2e0 1fbf 6da9 ffbe 2282 f63e 682d 2240
00000040: e07b 9bbe c0de 033e 68cc 36bd 3a3b 55be
00000050: 4058 3fbd c6d2 5c3e 00ac f3b9 50f2 38bd
00000060: 0fb6 4ebe 45bc 953e 4bda 9b3e ffd1 68be
00000070: 24f2 b9bd 6f69 9e3e bd6c a3be 3869 003e
00000080: 8df3 17bf caa0 84be 1f23 2e3e 1b27 6dbe
00000090: 6073 1c3c d39e 37be fd7e 3abe 5376 88be
000000a0: 3003 6dbe b4ea a3be 8871 dcbd 7295 82be
000000b0: 107e 8b3d dcf8 afbe 305e 04be b254 7f3d
000000c0: 142c aabe 5c7a dc3d b983 913f 9dad fa3f
000000d0: 7b8d 513d fc23 973d c4fc d6bd af5f abb9
000000e0: 546a ca3d e00d 0b3d f773 89be 00e0 bcb8
000000f0: c098 72bd a0f5 08bd e236 23be b4d7 f53d

layer3.bias f4 [8]
0.97554934 -2.1087112 -0.13641334 -0.3237296 -0.031076195 -0.23706803 -1.0000325 -0.20880155
00000000: 9abd 793f 20f5 06c0 f0af 0bbe e3bf a5be
00000010: 8193 febc f6c1 72be 1101 80bf 13d0 55be

layer4.weight f4 [8, 8]
0.043836612 -0.83250535 -0.21214347 -0.11367017 0.3373548 -0.19553499 0.7147785 -0.31273457
-0.74107313 -0.09319235 -0.34708473 -0.14773044 0.46506828 0.050298125 0.6895718 -0.30189183
0.17148627 -0.9676483 -0.18349633 -0.3388173 0.0007665338 -0.07414773 -4.1172323 0.09733945
-0.2631839 1.9546533 -0.07662216 0.35292438 0.20529288 0.038435392 0.7507863 -0.16954872
-0.25811833 -0.32412744 0.27373967 0.0039213 -0.14151242 -0.13763522 -0.31531814 -0.12199713
-0.94997495 -2.1104875 0.08496097 -0.18649723 0.17398736 -0.0059518516 0.39226317 -0.06483421
1.6390029 -0.5469274 0.28215674 0.26197848 -0.20684838 -0.3359074 0.036672965 0.29703018
0.99379134 0.50728446 0.16439965 0.21677032 0.15867227 -0.12193302 -1.3068976 0.007839948
00000000: 058e 333d 121f 55bf 233c 59be e8cb e8bd
00000010: c5b9 ac3e 533a 48be b9fb 363f bf1e a0be
00000020: f8b6 3dbf a1db bebd 17b5 b1be a646 17be
00000030: 6e1d ee3e 6805 4e3d c787 303f 9191 9abe
00000040: 199a 2f3e cdb7 77bf 76e6 3bbe 7679 adbe
00000050: 36f1 483a c4da 97bd 5ec0 83c0 e859 c73d
00000060: 0ac0 86be 1432 fa3f 14ec 9cbd 81b2 b43e
00000070: 4c38 523e 6e6e 1d3d 8833 403f 2e9e 2dbe
00000080: 1628 84be 08f4 a5be 9b27 8c3e 407e 803b
00000090: a2e8 10be 3ff0 0cbe 6171 a1be a2d9 f9bd
000000a0: 8f31 73bf 3a12 07c0 0400 ae3d 21f9 3ebe
000000b0: be29 323e c007 c3bb b8d6 c83e ccc7 84bd
000000c0: d9ca d13f 6f03 0cbf d976 903e 0b22 863e
000000d0: 10d0 53be 0efc abbe 6436 163d 5714 983e
000000e0: 1c69 7e3f 65dd 013f 6258 283e 0af9 5d3e
000000f0: fc7a 223e 05b8 f9bd 6c48 a7bf 2073 003c

layer4.bias f4 [8]
-0.1784425 -1.9461029 1.1342779 -4.889708 -0.567243 5.475764 -0.24430881 3.6957772
00000000: a1b9 36be e619 f9bf 0530 913f 7d78 9cc0
00000010: d636 11bf 7539 af40 172c 7abe 9d87 6c40

layer5.weight f4 [19, 8]
0.39077812 0.4356247 -2.7961957 -1.031714 0.11334133 1.084751 -6.450908 -5.1276155
-0.44696686 -0.6432957 -5.785007 0.4988574 0.33137074 -2.7153027 0.47303352 -0.124153204
0.36452445 0.18051426 -6.885047 -3.368293 -0.1504841 1.0242177 -0.65591735 -2.5466082
-0.15546814 -0.2714161 0.5163112 0.56719494 -0.19796622 -2.9547884 -0.10806895 0.4825058
-0.2931592 -3.1058497 -5.2102776 -2.0513282 -0.3133546 2.3234646 -11.734388 -0.72428024
0.3766639 0.57934064 -3.030982 1.1174864 0.3096197 -0.34789544 -3.717951 -1.15538
0.28346416 0.28497773 -6.6436152 0.3099984 -0.10413934 0.5440709 -1.7420667 1.3835464
-2.3917584 -0.24243687 -5.164209 1.0712284 0.29455933 1.583728 -0.45934975 -0.14749974
-3.513049 -1.2509755 -1.8771615 -0.25307855 -0.39133272 -6.591222 0.69164735 0.58195096
-1.4888333 -1.7630706 -5.9164915 -0.7239781 0.09276464 -7.2264533 -0.49681064 1.7780823
-0.031656463 -0.6934033 -9.380876 -2.9199612 -0.26754656 -0.34308004 0.12996988 0.9904504
-3.3798082 -1.663268 -3.2389262 0.9168627 -0.19247653 -2.255571 -1.2324055 0.7287799
0.63989 0.69855833 -1.8367865 0.46766055 0.25756362 -0.955409 -0.50808036 -2.8880222
0.1887177 0.8297497 -1.7396054 0.8071123 0.31834057 -3.6047983 -0.20853886 -1.5343577
0.002174267 -0.61804813 -13.534218 -2.8940387 -0.1829263 -1.0189853 0.6661682 0.11402128
-3.888507 -1.0447648 0.79103875 -3.5705938 0.031769108 -7.4959254 0.5772346 0.91353947
0.7134697 0.5866847 -2.3429868 -7.001145 -0.21805482 1.474115 -9.390787 -9.178677
0.31153572 0.07296795 -3.368486 -1.039556 0.20614508 0.21512626 0.1254766 -2.96191
-5.197419 -1.8219837 1.0514979 -1.2598442 -0.17060918 1.3901975 -8.894199 0.14092594
00000000: 1214 c83e 330a df3e dff4 32c0 340f 84bf
00000010: 801f e83d 1fd9 8a3f d76d cec0 6d15 a4c0
00000020: d7d8 e4be 07af 24bf c71e b9c0 3d6a ff3e
00000030: 6da9 a93e 85c7 2dc0 7331 f23e 0944 febd
00000040: f3a2 ba3e bbd8 383e 4e52 dcc0 1d92 57c0
00000050: 8118 1abe 9119 833f 33ea 27bf a1fb 22c0
00000060: 0a33 1fbe 0df7 8abe f92c 043f b033 113f
00000070: a8b7 4abe 411b 3dc0 4153 ddbd 000b f73e
00000080: f618 96be 3ec6 46c0 98ba a6c0 f648 03c0
00000090: 0470 a0be a5b3 1440 0ec0 3bc1 6e6a 39bf
000000a0: 17da c03e ab4f 143f 9cfb 41c0 cb09 8f3f
000000b0: 7986 9e3e 5a1f b2be e9f2 6dc0 7ee3 93bf
000000c0: 3722 913e 9ae8 913e 7f98 d4c0 1cb8 9e3e
000000d0: 0247 d5bd 3b48 0b3f 0bfc debf 0c18 b13f
000000e0: 9212 19c0 5f41 78be 3341 a5c0 031e 893f
000000f0: 7bd0 963e 99b7 ca3f e42f ebbe 2c0a 17be
00000100: cbd5 60c0 f71f a0bf d446 f0bf 8393 81be
00000110: c35c c8be 4aeb d2c0 cd0f 313f bdfa 143f
00000120: 1792 bebf 4cac e1bf e653 bdc0 a156 39bf
00000130: 63fb bd3d 1b3f e7c0 f75d febe 3398 e33f
00000140: 35aa 01bd e182 31bf 1118 16c1 a5e0 3ac0
00000150: ddfb 88be 30a8 afbe d316 053e 288e 7d3f
00000160: c74e 58c0 f7e5 d4bf 914a 4fc0 84b7 6a3f
00000170: 9118 45be 465b 10c0 77bf 9dbf 5291 3a3f
00000180: d5cf 233f b8d4 323f d21b ebbf 3471 ef3e
00000190: 61df 833e af95 74bf 8e11 02bf 5bd5 38c0
000001a0: 363f 413e 7a6a 543f 64ab debf e99e 4e3f
000001b0: 89fd a23e 04b5 66c0 368b 55be d565 c4bf
000001c0: 267e 0e3b 6738 1ebf 288c 58c1 ee37 39c0
000001d0: 0851 3bbe 1c6e 82bf 008a 2a3f fd83 e93d
000001e0: 4cdd 78c0 daba 85bf 8481 4a3f 9c84 64c0
000001f0: 5320 023d 9fde efc0 a6c5 133f b9dd 693f
00000200: f3a5 363f f830 163f 7ff3 15c0 6109 e0c0
00000210: c349 5fbe cdaf bc3f aa40 16c1 dcdb 12c1
00000220: 9c81 9f3e 3870 953d 4695 57c0 2c10 85bf
00000230: b217 533e 0f4a 5c3e f07c 003e ef8f 3dc0
00000240: 4251 a6c0 c336 e9bf 7c97 863f 9342 a1bf
00000250: 2cb4 2ebe fef1 b13f a44e 0ec1 e44e 103e

layer5.bias f4 [19]
0.7483803 -0.38822383 0.88591915 1.9283472 1.8357965 -4.5042534 0.081831075 -1.1395317
-1.8214395 1.3724605 0.42386958 -3.2977662 -2.1035986 -1.89663 -1.1201202 0.9473905
0.99351025 0.65564865 1.0977037
00000000: da95 3f3f 46c5 c6be 99cb 623f 15d4 f63f
00000010: 61fb ea3f d822 90c0 0d97 a73d 2ddc 91bf
00000020: ee24 e9bf c9ac af3f 6f05 d93e 9a0e 53c0
00000030: 5ca1 06c0 c6c4 f2bf 1960 8fbf 2f88 723f
00000040: b056 7e3f 97d8 273f 8e81 8c3f
